ML_scripts/models/model_exitepoch_1_cosdynamic_beta000_20240527_081055.pth (torch, 446162 bytes, 17 tensors)

conv1.bias f4 [128]
00000000: 02a7 0cbe 7280 a33d 0fd8 a23c fa4f a1bd
00000010: 8a4b babc 7382 fcbc ad8b 103e 79d1 27be
00000020: dcbd 61bd f99e c63c 51ce 293d f5d7 2f3e
00000030: ad5c 8ebd 03de b03c a4aa 4abd 4fea d93d
00000040: ac7c 0abe 15ba 163d 249c fcbc a22f 073d
00000050: 2176 efbc 2109 59bd 922e 513c bd5f 91bb
00000060: d803 f0bc 8d07 ba3d a62a 11bd ce6e 0abd
00000070: d588 1abe ea83 9d3d e8fb 3d3d a1aa 953d
00000080: 7089 d13c 3d46 b73d 8a0d 43bc ec17 0d3d
00000090: 9811 adbd 7794 c03d cbe1 193d 7792 92bd
000000a0: 8a0a 0bbe e885 113e b15f 1d3d d6fa a7bd
000000b0: 9bc5 763d 6f54 f8bc 737e 07be 88b1 a8bd
000000c0: 8462 e5bd 88c7 16bd a411 ccbb 2b67 f3bd
000000d0: 69c9 44bd 9e41 093d 4ddc 953c c514 3d3d
000000e0: 2ca7 f73c c559 37bd 4546 33bd d09a 123d
000000f0: e672 0bbe a3e2 f7bc 2a35 253d ee28 b0bb
00000100: 526d 28bd b5c0 5e3d 1e2e e23d 89bb 5b3d
00000110: 20b2 0abb fe5a c53d 3d7a ba3d 0111 443d
00000120: 817f 133d 8116 673d 9ef5 0cbb ec9a 583d
00000130: d592 b0bd dfee 203c c02b 46bc 863b 1e3d
00000140: 19e9 11be 6872 033d 30fc 483c b06f 573b
00000150: aee9 f9bd 71cb 8fbd 2b64 2a3e 7d11 643d
00000160: f62c 36bb a869 f2bc a26e 793b dfcf 1ebb
00000170: afc9 e83a cfc0 41bd 4788 923d 0417 ffbc
00000180: ce56 31bd d26c 34bd 0415 a5bd c672 c43d
00000190: 0794 30bd 8534 963d 44ba 34bd 7dea 46bd
000001a0: e21e 753d ac11 f23c 8254 b23b f63a 2f3c
000001b0: bd5c 8cbd 775b d7bd 7ecb 1d3d f496 de3b
000001c0: d0d7 c1bd 2d98 353c 76b4 173d 5f49 833d
000001d0: 5b8d b23c ea06 093d 3db0 1ebd ec2f eebd
000001e0: d8c2 8bbd 90f9 bebb 44f7 c33d b815 dd3b
000001f0: 075c 763d 57dd 98bb 5d46 c13c 4cbf 163d
-0.13735583 0.079834834 0.019878415 -0.078765824 -0.022741098 -0.030823922 0.14115782 -0.16388501
-0.055112705 0.024245726 0.041456524 0.17172225 -0.0695127 0.021590238 -0.04947914 0.10640394
-0.13524121 0.036798555 -0.030836172 0.03300441 -0.029231133 -0.05298722 0.012767451 -0.0044364617
-0.029298708 0.090834714 -0.035441063 -0.033797078 -0.1509126 0.07691176 0.046382815 0.073079355
0.02557823 0.08948944 -0.011905083 0.03444664 -0.08450621 0.094033174 0.03756885 -0.07156842
-0.13578239 0.14211237 0.038421337 -0.0820214 0.060247045 -0.030313699 -0.1323183 -0.082369864
-0.11200431 -0.03681138 -0.006227689 -0.11884912 -0.048043642 0.033509843 0.018293524 0.046162385
0.030231081 -0.044763345 -0.043768186 0.035792172 -0.13618049 -0.030259436 0.040333904 -0.005375973
-0.04111988 0.054383 0.110439524 0.053645644 -0.00211633 0.09636496 0.09105346 0.04786778
0.03601027 0.056417946 -0.0021508704 0.05288212 -0.08621756 0.009822576 -0.012095392 0.038630985
-0.14249076 0.03209153 0.012267157 0.0032872967 -0.12202774 -0.07021225 0.16639774 0.05568074
-0.0027797795 -0.029591396 0.0038060327 -0.0024232788 0.0017760302 -0.047303017 0.07154899 -0.031138904
-0.043295674 -0.04404909 -0.08060649 0.09592204 -0.04310992 0.07334236 -0.04412295 -0.04856347
0.059843905 0.029549442 0.005442203 0.01069521 -0.06853626 -0.105154924 0.038524143 0.0067928974
-0.09464991 0.011083645 0.037037335 0.06410479 0.02179592 0.03345386 -0.038742293 -0.11630234
-0.06824273 -0.00582809 0.095686466 0.006746974 0.060146358 -0.0046650576 0.023593122 0.03680353

conv1.lin.weight f4 [128, 7]
00000000: 1c45 443f bcd6 14bd adf6 84bd 1a16 b33d
00000010: 0c59 383e cd44 13bd f343 473d 559a cd3e
00000020: d5e4 f2bd 8f35 f0bd 046d f4bd d568 f7be
00000030: 82a6 88be 09d0 68be 86c0 09bb e636 08be
00000040: 7869 a1bd 0391 853e cc45 6cbe b14f 533e
00000050: e36f dfbe 8c82 9b3d b9ae 263d 916e ae3d
00000060: 3fb3 a93e 2ba5 08bf 09ec 68bc 4326 c8be
00000070: 54dd b6be b0d0 9c3d 5180 8d3d 4f8a 0cbf
00000080: effe 56be af58 1dbe 0bf5 3d3e 210e 073f
00000090: 6d77 fabc 51e1 7abe 95a8 fe3d d4bf 44be
000000a0: 69a3 023e 2849 48bd 109a d1be a8d0 aabc
000000b0: 6566 273d ae23 6039 d2f8 183f 29ff 153e
000000c0: fd4d 123e 3a61 c2be d86a 6bbd dba5 5dbd
000000d0: f321 253e 9e6c 383f b31b a03d ab93 9e3e
000000e0: c5f9 ccbe 9288 b83d ee03 823e 8645 0ebe
000000f0: 3f75 cdbe c419 0ebd 7776 62be 53ce 303e
00000100: 241d a1bd 65a4 68be d6a9 f13d e030 b5be
00000110: a0c2 373d f1ac 98be 705a f7be 905d 8ebd
00000120: ad81 8b3d b85f 95bc 46f6 223f 686e 203e
00000130: 5634 813e edaf 133f b9c4 13be 6fbd 013d
00000140: bfdc a43e ecda 123e 151e 74be d1f8 8cbe
00000150: ce48 01bf e147 a1bd 3729 613d 09aa 43bd
00000160: 157e 183f 88a3 0d3e 5d78 cd3e ce75 043f
00000170: 4c38 c0bc a2c2 edbc 1a0f d23d 55dd 8f3e
00000180: f8cd 85be 1a0c 673e 12f2 0ebf 2142 debd
00000190: fb4f 7fbd ea79 10be ed11 1fbe c32c 563c
000001a0: d0e2 5fbe ca21 673e 9584 3bbd da6a fabd
000001b0: 99bf 0dbe 5aa4 a93e cd43 1c3f 54b6 5b3e
000001c0: 7776 09bf c613 1bbe 5305 e83d 49a4 553d
000001d0: 4e28 2f3f b517 953c 13e3 783e 15f3 6ebf
000001e0: 70cb 1dbe 6a70 0b3d 9396 4e3e 6c0b bb3e
000001f0: 41c9 fa3c 6d11 afbd 2ed5 963e 3c0f b13d
00000200: 79c2 06be d94d 2dbc c9ac 363e 352c 04be
00000210: 9dec 973e f4ac 38be 98c6 62bd cdb6 6dbd
00000220: edd6 0c3d b112 6bbf 332d 8f3d 44b6 1fbf
00000230: f6df 0abe cd99 e83d f8f6 2ebd a654 aa3c
00000240: b30a c73e e676 423e c325 a83e ebf1 d6be
00000250: 330a 2abd bc43 bd3d f6a2 a43d d846 313f
00000260: ef1c 853b 267e d13e 484c fc3d d0f4 053e
00000270: 79ef 9bbe eb16 0e3e 6404 1ebe aef8 54be
00000280: 6420 c8bd c941 963e ce07 093e 11a2 afbe
00000290: 1487 99bd 8c88 a83e c6b8 a7be 0c53 973e
000002a0: f8a2 81be fcea 193e d933 56be 3e9e a9be
000002b0: 9b0c 1d3e 6208 9dbb 1560 adbe ebee e9bd
000002c0: d2fa 1cbd 232d ba3e d6da 37bc 617d b33e
000002d0: c100 133e bae5 7abe e6a5 debc 33fd 0a3d
000002e0: 955e afbc 51f1 0abd 51c4 da3e a1bd 523e
000002f0: f874 fd3e 5385 33bd d037 2e3e b6e3 4a3d
00000300: 6505 853e e731 963e 2550 d43c 48c4 fc3e
00000310: fe44 f6be fc3e 8a3d d662 68bd d94e 25be
00000320: 8e57 c8be 4afd 193e 7cb4 abbe 21ba 013f
00000330: 076c f63d 1b53 613d 4865 d03b 7706 d33e
00000340: 6a32 cdbe d16c 4b3e 1e73 c23c 346c 463d
00000350: 6cf0 21be faae 26be 7c40 1b3f 16c0 8f3d
00000360: 382f 0c3f e58e 41be 10c7 5ebd 9dbb 273e
00000370: 4aac 7d3d eaf1 febe 1a5c e0bd 078a 73be
00000380: 115d f23d 6187 44be f79e 93bd a3f3 153d
00000390: 1edc 233e 8db1 193f aa04 8a3d 9b73 0abf
000003a0: b84f 7bbd 32a3 193d d738 80bc 6e9a dfbe
000003b0: 7112 393d 5e5b edbe 0eaf 0d3c 345c 6fbd
000003c0: ad6c 213f 4b4f 0fbd 1da1 4a3e 8b3d f23c
000003d0: 672c c0bd 75b7 acbc 9fff 8bbd b8b7 8abd
000003e0: de21 8ebd 76a2 24bd a485 fa3e 06d5 f0bd
000003f0: c8ce 3e3d 4d50 cbba fcb4 de3d 2e5c ea3d
0.7666795 -0.0363376 -0.06492362 0.0874445 0.18002719 -0.035954285 0.048648786 0.40156808
-0.118600525 -0.117289655 -0.119348556 -0.48322168 -0.26689535 -0.22735609 -0.0021019294 -0.13302192
-0.07881445 0.26087198 -0.230735 0.20635869 -0.4364005 0.07593259 0.040693972 0.085171826
0.33144566 -0.53377026 -0.014216431 -0.3909169 -0.35715735 0.076569915 0.0690924 -0.5489854
-0.20995687 -0.15365861 0.18550508 0.52755934 -0.030574525 -0.24500014 0.12434498 -0.19213802
0.12757649 -0.048897892 -0.40937853 -0.020851448 0.040869135 0.00021375596 0.5975467 0.14648117
0.14287563 -0.37964803 -0.05747494 -0.05411325 0.16126232 0.72040737 0.07817783 0.30972037
-0.4003431 0.09010424 0.25393623 -0.13893709 -0.40128514 -0.03469254 -0.22115503 0.17266206
-0.07866886 -0.22718962 0.11799972 -0.3538885 0.044863343 -0.29819444 -0.48311186 -0.069514394
0.06811843 -0.018234119 0.63657033 0.15667117 0.25235242 0.57690316 -0.14430512 0.0316748
0.32199666 0.14341325 -0.238396 -0.27533582 -0.50501716 -0.07875038 0.054970946 -0.04776958
0.59567386 0.13831913 0.40130892 0.51742256 -0.023464344 -0.029023472 0.10256787 0.2809855
-0.26133704 0.2256321 -0.5583812 -0.10852457 -0.062332135 -0.14109007 -0.15534182 0.013072195
-0.21863866 0.22571483 -0.045780737 -0.122274116 -0.1384262 0.33133203 0.61040956 0.21456271
-0.5369639 -0.15144262 0.113291405 0.052158628 0.68420875 0.018199781 0.24305372 -0.93339664
-0.15409636 0.034042753 0.20174627 0.36532152 0.030613543 -0.085482456 0.29459518 0.08645484
-0.13160123 -0.010577642 0.1783935 -0.12907489 0.2967271 -0.18034726 -0.055365175 -0.05803566
0.034384657 -0.91825396 0.06991043 -0.6238749 -0.13561997 0.1135746 -0.042715997 0.020792317
0.3887535 0.18990669 0.3284131 -0.41981444 -0.041513633 0.09241435 0.08038895 0.69248724
0.004062287 0.40916556 0.12319237 0.1308167 -0.3045614 0.1387593 -0.15431362 -0.20797989
-0.09771803 0.29347065 0.13381884 -0.34303334 -0.07496467 0.32916677 -0.32758158 0.29555547
-0.25319648 0.15031046 -0.20918216 -0.33128542 0.1533684 -0.004792259 -0.33862367 -0.11422523
-0.03832514 0.36362562 -0.011221608 0.35056594 0.14355756 -0.24501696 -0.027178716 0.033932876
-0.021407405 -0.033921544 0.42727903 0.2058015 0.49503303 -0.04382832 0.17013478 0.04953357
0.25980678 0.29334947 0.025917122 0.493685 -0.48099512 0.067502946 -0.056734882 -0.16143359
-0.391293 0.15038028 -0.33536136 0.50674635 0.12032323 0.055010896 0.00635973 0.4121587
-0.40077525 0.19865729 0.023736533 0.048443034 -0.1581437 -0.16277686 0.6064527 0.07019059
0.5475955 -0.18902166 -0.05438906 0.16380163 0.061931886 -0.4979394 -0.10955067 -0.23783122
0.11834157 -0.19192268 -0.072080545 0.036609303 0.16001937 0.60036546 0.06739171 -0.5408265
-0.061355323 0.03750915 -0.015652103 -0.43672508 0.045183603 -0.4635877 0.008647693 -0.05843754
0.6305645 -0.03498773 0.19788022 0.029570362 -0.09383469 -0.021083573 -0.06835865 -0.06773323
-0.069400534 -0.040193997 0.48930085 -0.11759381 0.04658392 -0.0015511602 0.10874364 0.11443363

bnorm1.weight f4 [128]
00000000: 334c ae3f f3e5 963f 983a 7d3f 0427 a73f
00000010: d2b2 743f 0a15 853f d470 ab3f 87a0 903f
00000020: d330 903f 8c87 5f3f 1ff1 9f3f bac7 783f
00000030: b2a6 a13f 989b 853f 2a4e 6a3f 23e2 a43f
00000040: b2d6 c63f b11a 9e3f 4fb2 5f3f a586 cd3f
00000050: 360b 6f3f 5f7e b43f 5c27 5e3f e9c5 623f
00000060: 5d49 413f cd54 593f 4c61 4a3f c641 5d3f
00000070: 870d a43f 9a51 a33f ae7c 873f 120d 823f
00000080: 2b6a 873f d5e3 8f3f 7b1e 823f 742f 8b3f
00000090: 2f77 8c3f 5add 973f 77dd 663f 6363 373f
000000a0: 21e1 543f bd18 753f c2b1 443f 18cb ab3f
000000b0: ccba 723f 439d 913f d145 b23f bf4f 9c3f
000000c0: f65b 753f e61b 5b3f 6aff 573f 495b 9d3f
000000d0: ce10 7c3f c4e4 743f 38bc 8e3f a44b 9c3f
000000e0: ad61 8c3f 195c 2e3f a0b0 7a3f 72f2 903f
000000f0: eda7 963f 4062 423f 8150 a83f 056b 8a3f
00000100: a91f 8a3f 7a4e 6f3f 6fdc 993f 61e7 523f
00000110: ce18 833f efe0 693f 6d0c 703f 4bf7 663f
00000120: e648 563f 3e05 a03f 0e63 533f 1d99 8a3f
00000130: 504d c43f 6851 6f3f f332 783f 0ff3 8a3f
00000140: 1195 313f dab1 8f3f a526 803f 41ac 683f
00000150: 5cb2 8d3f 7e63 783f 9063 a43f 47dc 803f
00000160: 47bf 893f dd2d 973f bb30 aa3f 0022 713f
00000170: 6c68 363f 9513 793f 0f32 7c3f c8b2 a53f
00000180: da80 453f a387 723f 29b6 593f a101 8f3f
00000190: a5f4 ad3f fe85 8e3f df19 833f 98da a53f
000001a0: ac30 943f 35c7 693f 5a8c 553f 15da 5a3f
000001b0: 6d24 6e3f 4d08 b23f 5d97 b13f 4867 9b3f
000001c0: 1c9f 993f cf82 593f a7bb 793f 716e 683f
000001d0: 4e1d 9c3f 0161 923f 9768 853f 7f3a 3e3f
000001e0: a950 693f 17f0 753f ee47 3e3f 433b 683f
000001f0: fde0 383f 6ca7 c63f 6e24 8a3f da9f a83f
1.3617004 1.1788925 0.9891753 1.3058782 0.9558536 1.0397046 1.3393807 1.1298989
1.12649 0.87316203 1.2495459 0.9717976 1.2628996 1.0438108 0.9152552 1.2881511
1.553427 1.2351896 0.8738145 1.6056715 0.9337648 1.4101065 0.8677881 0.88583237
0.7550257 0.8489502 0.79054713 0.8642849 1.2816628 1.2759278 1.0584924 1.0160239
1.0579275 1.1241404 1.0165552 1.0873857 1.0973872 1.1864426 0.9018168 0.7163603
0.8315602 0.9574087 0.76833737 1.3421354 0.9481628 1.1376117 1.3927556 1.2211837
0.95843446 0.85589445 0.84374106 1.2293483 0.9846314 0.9566157 1.115119 1.2210584
1.0967308 0.6810928 0.9792576 1.1323988 1.1769997 0.7593117 1.3149568 1.081391
1.0790912 0.9347912 1.2020396 0.82384306 1.0241945 0.91358846 0.9376896 0.9022109
0.83704984 1.25016 0.8257302 1.0827976 1.5336094 0.9348359 0.9695274 1.0855426
0.6936808 1.1226151 1.0011793 0.9088784 1.1070056 0.97026813 1.2842884 1.0067223
1.0761498 1.1810871 1.3296121 0.94192505 0.71253085 0.97295505 0.98513883 1.2945185
0.77149737 0.94738215 0.8504358 1.1172372 1.3590285 1.1134641 1.024227 1.2957335
1.1577353 0.9131959 0.83417284 0.85489017 0.9302433 1.3908783 1.3874317 1.2140894
1.2001681 0.84965223 0.9755196 0.9079352 1.2196443 1.1435853 1.0422543 0.7430801
0.911387 0.96069473 0.74328506 0.90715426 0.72218305 1.5519843 1.0792367 1.3173783

bnorm1.bias f4 [128]
00000000: a446 fb3c 2754 b33e f1d4 8bbd 6933 9f3e
00000010: a7ca b2bd 276e 9cbd fc30 a03e 1ee7 a03e
00000020: 041b acbd 4089 7b3e 44c5 513e ef01 023c
00000030: 7761 7c3e 8973 dbbd aee1 48be 69ed a23e
00000040: 1427 a93e b8f7 e33c 9571 97bc 7cff e23e
00000050: a9f4 0abe 443a 7e3e 8195 3d3d 3846 73be
00000060: da7f 86be 1379 3ebe ef77 983e dbc6 9ebe
00000070: 68f1 443e 5056 4c3d a3d2 d63e 34fb 113d
00000080: cb3e 943d 4a8e 8a3d 3e3a 25be 95b5 aebd
00000090: 1305 09bd a480 983e a6ec 013e 32d6 5ebe
000000a0: bb89 f1bd ae96 9dbd 9d98 41be c883 aa3e
000000b0: 9ad3 33be 1690 37bd 1b2f ec3e 567b 413e
000000c0: 1c6c 433e 0e10 86be 20dc c8bd 3b52 563d
000000d0: e6dc 0d3e 3ca8 bb3d 6232 193d 9a4c 943d
000000e0: 82fc 5a3d 0e8e 4cbe 20a3 1bbe 2c27 bb3e
000000f0: 3057 4fbe e322 52bd d1b0 e43e 187b 44bc
00000100: 2a53 493e 00e3 583d 9d0a 623e 0398 babd
00000110: 0443 92be 770a 183e 4956 a5bc a622 92be
00000120: 5196 093d a3e1 833e 0772 40be 93fe 48be
00000130: a42a 083f a776 83be 468a a6bd 09af 04be
00000140: e1c5 3c3c 4777 e53d 51b7 993c e0bb 843e
00000150: 6a55 273e 92a0 22be 01ba c13d 2dd9 a6bd
00000160: f0cf 8b3d 6061 52bc 219f e33d a56a 8dbb
00000170: 589e 7cbe 5c2f 00be 015f 8fbd 240e 723e
00000180: 29b7 f13c 7973 0abd 060f f2bd dbac 903d
00000190: 025b 073e 54dd 1e3f 9b4d 873d fbee 573e
000001a0: e6ed de3a 23b4 f1bd 9836 d1bd 7cc0 93be
000001b0: 5db0 993e 8e87 e7bc f6ef d13d 0b8f 793e
000001c0: 8a7d bb3e ddef 84be e9ff 143e 72c8 0fbe
000001d0: a6f5 8d3e 40fb 9c3d 53d5 083f c7ac a5be
000001e0: 2109 7cbe 045a 5fbe c1ab 15be f698 2fbe
000001f0: 75ea 99be f515 033f 1ade c8bd 83cd 11bc
0.030673333 0.3502514 -0.06827725 0.3109391 -0.08730059 -0.076381974 0.31287372 0.31426328
-0.0840359 0.24564075 0.20485407 0.007935031 0.24646555 -0.10715396 -0.1961734 0.31821755
0.33037627 0.027828082 -0.018486777 0.44335544 -0.13569893 0.24826914 0.046285156 -0.23757255
-0.26269418 -0.18600874 0.29779002 -0.3101109 0.19232714 0.049887 0.41957578 0.035639957
0.07238539 0.06765421 -0.16135499 -0.08530728 -0.033452105 0.29785645 0.1268793 -0.21761397
-0.11793848 -0.076947555 -0.18905874 0.33303666 -0.17561188 -0.044815145 0.4612969 0.18894705
0.19084209 -0.26184124 -0.098076105 0.052324515 0.13853797 0.091629475 0.037401564 0.07241173
0.053463466 -0.19976065 -0.15198946 0.36553323 -0.20248103 -0.0513028 0.4466615 -0.011992238
0.19660631 0.05295086 0.22074361 -0.09111025 -0.28566754 0.14847742 -0.020182746 -0.2854206
0.03359062 0.25758085 -0.18793498 -0.19628362 0.53190064 -0.25676462 -0.08131842 -0.12957396
0.011521787 0.11204391 0.01876417 0.25924587 0.16341177 -0.15881565 0.094593056 -0.08146892
0.0682677 -0.012840599 0.11114336 -0.0043156915 -0.24669778 -0.12518066 -0.070005424 0.23638207
0.029506283 -0.03380153 -0.11819272 0.070642196 0.1321831 0.6205647 0.06606599 0.21087258
0.0017008155 -0.118019365 -0.10215491 -0.2885779 0.30017367 -0.02826288 0.10250847 0.24370973
0.36619216 -0.2596425 0.14550747 -0.14041308 0.27726477 0.0766511 0.53450507 -0.3235838
-0.24612857 -0.21811682 -0.146163 -0.17148194 -0.3006169 0.5120538 -0.098079875 -0.0088990955

bnorm1.running_mean f4 [128]
00000000: 8235 0abe e4a3 ae3d 7e5d 833c 306a 94bd
00000010: d868 81bc 1690 11bd 715e 0b3e 37ba 31be
00000020: 1fe5 4fbd 9d8f b23c df19 153d 9352 323e
00000030: 204f 9ebd ea0e d03c f012 48bd 5002 bb3d
00000040: 9187 0fbe 5e1e fe3c 764a 01bd 43bb 163d
00000050: 3439 11bd 463d 6cbd 4d4f 6b3c f485 7fbb
00000060: c0d6 dcbc b0dd bd3d 872d 2abd 6660 16bd
00000070: 2357 19be c5b9 a93d 5821 1b3d 01be a03d
00000080: 5beb 5c3c 1cee bc3d 2021 9ebb 4560 d23c
00000090: 2d70 bfbd 94be be3d 61a0 023d de6f 89bd
000000a0: 43ca 02be 47ed 123e c2e3 0e3d abfa a2bd
000000b0: edc9 753d 8b6e f2bc abb9 ffbd 544a b8bd
000000c0: 4fd1 edbd fb99 15bd 4313 9abc c0e5 f2bd
000000d0: 2f1e 2bbd 9ab9 ed3c b72f d13b f36b 253d
000000e0: 321a 1a3d a36e 25bd 6a85 0dbd c49d fb3c
000000f0: a8ac 0cbe ec9f debc 042f 133d c3d6 303b
00000100: 73b6 19bd 7f93 593d 896c e63d 8587 3d3d
00000110: 4e4a a13a 8678 cc3d 364f be3d 5ace 593d
00000120: 3acf 1a3d 354f 5a3d 76de 06bc 2c7b 7a3d
00000130: 9400 b0bd ea62 7f3b a57a bcbb 4f44 053d
00000140: c6b1 0ebe 4b06 df3c a848 5f3c 36e5 113b
00000150: 3606 efbd 56dc 7cbd f919 333e 58e1 4b3d
00000160: 41a7 843b 5a1d c5bc 9a7c 6f3a f859 f03a
00000170: 4aa6 c03a 2606 4bbd 1570 a33d 7422 3bbd
00000180: 33e6 2bbd 2950 50bd 3664 aebd 4fb1 cf3d
00000190: ef16 23bd c3ba 9b3d c1be 18bd 8e60 65bd
000001a0: 929a 8b3d 9d11 153d 28b6 463c cac6 483c
000001b0: ede9 86bd a5b9 debd b81e 2b3d b56d 303b
000001c0: 878e c5bd 8f2c 773c 8875 e03c 0bda 903d
000001d0: 6603 4b3c 8ae6 1d3d eccc 3abd b66d e9bd
000001e0: 7076 82bd cc72 62bc f06a c13d 5fb8 163b
000001f0: 0fa0 873d 5c11 51bc cca7 ae3c 1dc5 253d
-0.13496974 0.085273534 0.016035791 -0.07246816 -0.015797064 -0.0355378 0.13610245 -0.17356192
-0.050755616 0.021796996 0.036401626 0.17414312 -0.07729936 0.025397737 -0.048846185 0.091313004
-0.14016558 0.03102034 -0.031565152 0.03679968 -0.035454944 -0.057675622 0.0143621685 -0.0038989754
-0.02695787 0.09270799 -0.041547325 -0.036713026 -0.14974646 0.08287386 0.037873596 0.0784874
0.0134838475 0.09225103 -0.004825726 0.02568067 -0.09347568 0.09313694 0.03189123 -0.0671079
-0.12772469 0.14348327 0.034885176 -0.07957967 0.060007025 -0.029593727 -0.12486585 -0.08998552
-0.11612188 -0.0365238 -0.018808013 -0.118602276 -0.041776832 0.029019166 0.006383862 0.04038615
0.037622638 -0.040388715 -0.03455106 0.030714877 -0.13737738 -0.027175866 0.03593351 0.0026983477
-0.037527513 0.05311918 0.1125117 0.04627182 0.001230547 0.099839255 0.09292452 0.053175308
0.037795283 0.053298194 -0.00823175 0.061152622 -0.0859386 0.003896887 -0.005751925 0.032535847
-0.13935003 0.02722468 0.013628162 0.0022261865 -0.116711065 -0.061733566 0.17490377 0.04977545
0.0040482585 -0.024061847 0.00091356935 0.001833736 0.0014697996 -0.04956641 0.07980362 -0.045687154
-0.041967582 -0.050857697 -0.085152075 0.10141241 -0.039816793 0.07603981 -0.037291292 -0.056000285
0.06816591 0.03639375 0.01212839 0.012254426 -0.065875866 -0.10875253 0.041777343 0.002692086
-0.096463256 0.015086307 0.027399793 0.070728384 0.012390947 0.038549937 -0.045605585 -0.11397879
-0.063702464 -0.013821315 0.09444225 0.0022998077 0.06622326 -0.012760486 0.021320246 0.040471185

bnorm1.running_var f4 [128]
00000000: 22eb ed3e c33e 293f 2c08 ba3e 80ef 003f
00000010: 904c 033f 3f37 8f3e b245 0d3f dfa4 6b3f
00000020: c44f e33e 2f9e 9c3e 1d67 403f 76a0 b53e
00000030: 7923 5b3f 09fc b83e 5922 b03e d3fe fb3e
00000040: 62ee 543f f2cf 523f 12fb 663e cf4d b63f
00000050: 4986 d33e cd42 703f 47fb 1d3e e4b5 ed3e
00000060: 6043 423e 8cda 503e cba9 143f b473 043f
00000070: 2cf2 ff3e b941 f73e 4da6 4d3f 1fde c83e
00000080: 2612 cc3e c0ec 303f 6797 9e3e 21a2 243e
00000090: 6daf 063f 4570 ed3e 7643 d03e dd07 db3e
000000a0: 2816 753e 33d2 193e 9b18 2e3e e21a 6a3f
000000b0: d7fe c33e 7fb4 083f 4594 183f 91c9 d63e
000000c0: 2e06 993e 0b3e 253e 6e5d 8a3e fec0 203f
000000d0: 2a7a dd3e dcf9 9c3e ffc7 653e d3a2 9c3e
000000e0: c764 393f 15de 423e 4edd d93e 69c2 283f
000000f0: b2cf 9b3e 53e0 893e 3ef9 8a3f 909a 203f
00000100: 2226 303f 0d28 4f3e d37b 053f b417 f13d
00000110: b2b2 0b3f c728 813e 2f16 533e c72d a03e
00000120: 0afe bb3e ae94 363f a1ef 6e3e 68ea 493f
00000130: 6c61 f43e 775b 403f af6b 023f e850 f73e
00000140: 38e7 983e 3906 d23e 2d11 cb3e 7e3b e83e
00000150: 6a79 b63e c9e1 d03e dc98 db3e 8abb 083f
00000160: e6f1 793e 3952 d43e 02a3 f33e 2b1c a43e
00000170: d892 173e 4b3a c13e 7670 e53e b28c 0e3f
00000180: a234 1b3e f3b6 b93e bb9a 753e d700 9a3e
00000190: cbdf 1e3f 01e6 b63e 34c3 443f e480 263f
000001a0: 3b1b 243f 6641 c23e d083 af3e 388d 573e
000001b0: 510f ca3e 428e 933f a743 803f f8ab 433e
000001c0: fabb 473f d6cb e13e 87dd 433f 2299 7c3e
000001d0: db4c 2f3f c0a4 113f 53f4 fb3e 98f3 7e3e
000001e0: e469 013f 46cc b13e 5f44 5e3e c560 bc3e
000001f0: c7d2 9a3e 807f b93f 11eb 913e 8444 803f
0.46468455 0.6611139 0.3633436 0.5036545 0.512887 0.27971837 0.5518447 0.9204845
0.44396794 0.30589435 0.7515734 0.35473984 0.85601 0.36129788 0.34401205 0.49217853
0.83176243 0.8234855 0.22556713 1.4242495 0.4131339 0.9385193 0.15427886 0.46427834
0.18971014 0.20395869 0.58071584 0.5173905 0.4998945 0.4829233 0.8033188 0.39231965
0.39857596 0.6911125 0.30974886 0.16077472 0.5261143 0.46374717 0.4067647 0.42779437
0.23934233 0.15021591 0.17001574 0.9144727 0.38280365 0.53400415 0.5960124 0.41950658
0.29887527 0.16136949 0.27024406 0.6279448 0.43257266 0.30659378 0.22439574 0.30592975
0.724194 0.1903003 0.42551655 0.65921646 0.30431896 0.26928958 1.0857313 0.62735844
0.68808186 0.20230122 0.52142066 0.11772099 0.5456954 0.25226423 0.20613931 0.31284925
0.36717254 0.7132062 0.23333599 0.788733 0.47730577 0.75139564 0.5094556 0.48303914
0.29863906 0.41020373 0.39661542 0.4535789 0.35639507 0.4079726 0.4289006 0.5341116
0.24408683 0.4146898 0.47585303 0.3205274 0.1480211 0.37739787 0.44812363 0.55683434
0.15156797 0.36272392 0.23984806 0.30078766 0.6206023 0.35722354 0.76860356 0.6504042
0.6410405 0.3794052 0.34280252 0.21049964 0.3946481 1.1527789 1.0020646 0.1910857
0.78021204 0.44100827 0.765099 0.2466779 0.6847665 0.56892014 0.49209842 0.24897611
0.505522 0.3472616 0.21705769 0.3679258 0.30238935 1.4492035 0.28499654 1.0020909

conv2.bias f4 [256]
00000000: ce0f 933b 667b 663b 4dcd 0dbb fa7a 5a3c
00000010: 0ec1 aabc b3fe 7bbc 60c4 1bbd 4640 45bc
00000020: 207d a03c f1f3 28bc 87b1 993b 80d1 19ba
00000030: a92d 8b3b 1e52 8dbc 94e6 0c3c 573d 1dbc
00000040: caee a0bb eb92 1c3c 7fb8 a23a bd19 e53b
00000050: 9736 96bc c67e 233a aa49 9ebc 287c 153b
00000060: 40b3 f9bb fcdb 923c c7b2 893b ef19 1a3c
00000070: 1620 9abc 7a36 b9bc 9f34 783d f862 373c
00000080: 9edf 833c f290 a0bb 63ac 24bc dd80 a23c
00000090: 1613 47bc 0d6e e3ba 763b a73b f572 7a3b
000000a0: 2135 953c 38e9 88bc 6db0 e93c dec1 f33b
000000b0: 6d42 3bbc 6e07 6c3c 296a 693c 0931 e8bc
000000c0: 8a75 7a3d d188 ed3b fc19 153a 99d8 25bb
000000d0: 2d73 143b cbde 873b 6769 4ebc cd8e 53bb
000000e0: e50d f3ba 1f68 8d3b 36ae 32bb 0093 1c3b
000000f0: bcb4 f0bb 4c38 bd3b 3c88 d63b 0231 afbb
00000100: 3600 28bb 7486 c739 ba88 acba c2a7 f0bb
00000110: 56b1 ce39 c5e9 813b 21f5 543d 448e ccbb
00000120: 96c4 e2bb 4299 1f3d 7dbf cfbc 11c1 71bc
00000130: cd9b 65bb 0688 ef3b 3b5a e0ba 8b90 b3bb
00000140: fce9 2d3b 05aa 363c d301 213c a1ef b53b
00000150: 7498 acba f8a8 aebc c28e 5939 5278 de3b
00000160: b2fd db3b 2fc9 32bc a94c b73c ab8f 3c3b
00000170: 2939 8aba f339 0e3c d49a 563b 6b4f 09bc
00000180: 1f58 463c 050a a73b 05e4 15bd 360c e0bc
00000190: 18aa b93b aa0a 58bc 0ebc 563b 2d09 2d3c
000001a0: 8e4f 9abc ee82 57bc 0e25 a3bc 87ad b13b
000001b0: fdcc fcba 7051 9d3b 61a5 0cbb 872d 4cbc
000001c0: 13db 0cbc 4691 963c c03b 463c a5a4 1ebc
000001d0: 1f68 a5bc 43a2 463b e3f5 003c 807f 8d3c
000001e0: c18d 9a3c a531 6d3c 60af cdbc 86ce b33c
000001f0: f724 c0bc 9f53 b53c b24b e23b bf3c c53c
00000200: eee4 6b3c 56f7 b73b 5f7c bbbb 648c e8bb
00000210: 6eff afbb 7410 223b 7843 e0bc 4386 0cbc
00000220: 6b68 0dbc 0ec3 0d3d 5aa2 893b ad30 47bb
00000230: 6a70 9d3b 55db 143c 821d 143b b9d4 ac39
00000240: bc3c 413b 73da 843b d304 7b3c 9350 2c3d
00000250: 11a4 c8bc 585e 623b fe15 8e3c 988e ee3c
00000260: 0de4 ca3c 1c13 5abc 9f8a 1bbc 7617 b5bb
00000270: 140d 41bc 909c 27bd 8460 e73b 6cf4 71bc
00000280: 6648 b0bb fd5f 3bbc 8087 b13c 84b7 193b
00000290: 0ff0 1eba 23cc f4bc 6357 bdbb 4f04 1d3a
000002a0: 3731 4aba fc1b a1bb 1968 95bc 71d6 17bc
000002b0: 0b33 233d 8383 ec39 9c94 89bc b5ea 56bc
000002c0: f233 98ba 23bb 063c 4b6f 2e3b 3ef8 173c
000002d0: 8aac 24bc 24b6 983a cd2f acbc f315 3d3b
000002e0: ef65 2fbc fb1a 75bc fc23 553c 5728 b1bb
000002f0: c532 2cba eb41 9b3c 4edd 15bc 76d0 a73b
00000300: 272a 5dbb 2e36 d53a 2faa 66bc 6957 f03b
00000310: cb81 9cba 2aa1 99bc 4c16 663a 6af3 f43c
00000320: d0d5 aa3b d660 803c 4606 013a 882b 483a
00000330: 953a a63a 4f9e 573b c313 8f3c 99cb 8a3b
00000340: ce5b 023c 6e72 6bbc 1527 52bc 0d4e ebba
00000350: b5b5 f5bb 2014 903c 9876 cabc 25bb 323c
00000360: c404 62bc a5b5 c33c fa6c 90bc 7294 f8bc
00000370: 76d1 2eba 6231 233c 5142 023b 9374 773a
00000380: d534 1b3d 3cb9 1d3c f01e 7ebb 7aef c6bc
00000390: 64ca 88bb db4b 89ba 46ee 483b 27da a03a
000003a0: d030 21ba d34a ec3b eb71 673c bf26 6a3b
000003b0: 918d 89bb f4f0 743c 7d6e 2e3c b83f bebc
000003c0: 8a9a cfbb 7a54 353b 370d bcbc ea27 d2bb
000003d0: 5d3d a6bb 39c3 5a3c 21b6 103b 028e 12bc
000003e0: a249 593b 3021 9fbc b89f c5bb a11e 083c
000003f0: 2fd6 50bb 5371 a3bc 9714 2ebd e2e0 96bb
0.004487968 0.0035168766 -0.0021637261 0.013334984 -0.020844009 -0.015380549 -0.038029075 -0.01203925
0.019590914 -0.010312066 0.0046903524 -0.0005867705 0.0042473865 -0.01725107 0.008599896 -0.009597144
-0.0049112784 0.009556512 0.0012414603 0.0069915936 -0.018336577 0.0006236847 -0.019322235 0.0022809599
-0.007620245 0.017927162 0.00420222 0.009405597 -0.018814128 -0.022608984 0.06059706 0.01119303
0.01609784 -0.0049000913 -0.010050866 0.019836837 -0.012150547 -0.0017351523 0.005103524 0.0038215492
0.01821381 -0.01671277 0.02852651 0.0074388823 -0.011429411 0.014406068 0.014246502 -0.028343694
0.06114725 0.007248976 0.0005687771 -0.0025306104 0.0022651658 0.004146432 -0.012598372 -0.003228116
-0.001854357 0.0043153907 -0.0027264482 0.002389133 -0.007345764 0.0057745334 0.006547002 -0.0053464184
-0.0025634891 0.00038056413 -0.0013163306 -0.007344217 0.00039423507 0.003964635 0.051991586 -0.0062425453
-0.0069204075 0.038964517 -0.025359863 -0.014755503 -0.0035035491 0.0073099164 -0.0017116735 -0.0054798773
0.002653717 0.011148934 0.009827095 0.0055522476 -0.0013167993 -0.021320805 0.00020747914 0.0067892456
0.0067135924 -0.010912224 0.022375422 0.0028772156 -0.00105456 0.008680808 0.0032746093 -0.008380751
0.012105971 0.00509763 -0.03659441 -0.027349573 0.0056660287 -0.013186136 0.0032765898 0.01056127
-0.018836763 -0.013153775 -0.01991513 0.0054222974 -0.0019287165 0.004800968 -0.0021460878 -0.012462026
-0.008597153 0.018379819 0.012099206 -0.009682809 -0.02019125 0.0030309118 0.007871124 0.01727271
0.018866422 0.014477168 -0.02510804 0.021949064 -0.023455126 0.0221346 0.0069059962 0.024076818
0.014397843 0.0056142015 -0.0057216133 -0.007096814 -0.0053710258 0.0024729045 -0.027375922 -0.008576932
-0.008630852 0.034609847 0.004200262 -0.0030394003 0.0048046606 0.009085496 0.0022600596 0.00032964887
0.0029485663 0.0040543615 0.015320974 0.04206903 -0.024492295 0.0034541097 0.017344471 0.029120728
0.024766946 -0.01331022 -0.009493499 -0.0055264784 -0.011782903 -0.040920794 0.007061066 -0.014767747
-0.0053797243 -0.01143646 0.021671057 0.002345533 -0.0006062993 -0.029882496 -0.0057782396 0.0005989717
-0.0007713022 -0.004916666 -0.018238114 -0.009267435 0.0398436 0.00045111412 -0.016794495 -0.013117482
-0.0011612161 0.008223328 0.0026616629 0.009275494 -0.010050902 0.0011650962 -0.021018887 0.0028852194
-0.010705455 -0.014960046 0.013009068 -0.00540642 -0.00065688445 0.01895233 -0.009147001 0.005121286
-0.0033747049 0.0016266757 -0.014078661 0.007334639 -0.0011940537 -0.018753607 0.0008777126 0.029901225
0.0052134767 0.015671175 0.0004921894 0.0007635881 0.0012682254 0.0032900756 0.017465478 0.0042356965
0.007956458 -0.014370544 -0.012826701 -0.0017952338 -0.007498468 0.017587721 -0.024714753 0.010908877
-0.0137950815 0.023890326 -0.01763009 -0.030344222 -0.00066687854 0.009960504 0.0019875953 0.0009439673
0.03789218 0.009626683 -0.0038775764 -0.024284113 -0.0041745175 -0.0010474877 0.00306596 0.0012272046
-0.0006148936 0.007211068 0.014126281 0.003572866 -0.0041977842 0.014950026 0.01064646 -0.023223743
-0.006335561 0.002766876 -0.02295552 -0.0064134495 -0.005073233 0.013352209 0.0022081214 -0.00894499
0.003315546 -0.019425005 -0.006031003 0.008308084 -0.0031865945 -0.019951498 -0.042500105 -0.004604445

conv2.lin.weight f4 [256, 128]
00000000: 7b9d 8bbe 02b7 cbbe fe23 13bf 7c93 493c
00000010: dc55 853c 1e8b d8bd 48e6 54bd 4751 49be
00000020: 7ab0 303e 568c 70be 3c21 22be b615 2bbf
00000030: c981 ffbd 4746 66bd 24a1 3cbe 7f95 aebe
00000040: de75 a1bd b4cc 5bbc e2f8 bfbc 6156 533e
00000050: 1768 d8bd 888c b1bd 4f9a d3bd fdf3 0abd
00000060: 3374 3ebd 6f22 bfbc f01c 343c d0b0 423d
00000070: 4db3 3fbe 2df1 be3c 7ad6 7ebd 0419 743d
00000080: 7a3c d1be a680 2d3e f90f c73e 485d 2ebf
00000090: f73b a8be ff64 0a3d 9130 21bd b901 56be
000000a0: 2440 443e 21e2 1dbe 3114 15be 515c b2bc
000000b0: 837f c0bd 04ee 0fbe 40a1 553e b648 4abe
000000c0: ab48 76be cc84 02bf 0cd2 5abe 626d 1dbd
000000d0: 10eb 10bd 3391 06be c324 80be 1cb1 85be
000000e0: 7dbc b2be b62c 723e e4a6 823e 4dff 87be
000000f0: e2d6 6dbe afb7 00be 0c52 5ebd 2c74 25be
00000100: 2ad9 2d3d de00 73be fe75 a6be a324 07be
00000110: 5898 a8bd 5ceb 6fbe 06d5 a2bd ad00 3abe
00000120: 270c 11be 222b a5be a6f9 1abe 1c69 8d3e
00000130: 1dfe a8be dc4d 80bc 89a1 59be ca96 00be
00000140: 4ff8 78bd d3e8 a0be 01b2 673e 58d4 d6bb
00000150: 0710 5dbe b4d7 dbbc 4d4b b03d 2e1f 65bd
00000160: 587a 823e 7a79 043e dfb1 8abe c939 903d
00000170: 06b8 b7be 27b1 8f3d 226d abbd 8a0e f1be
00000180: e70c 54be 3aed 91be be27 a2bd 4358 be3e
00000190: 1cd4 aebd 044a 65bd 3935 1fbe 7a34 28be
000001a0: 5fa4 983d f381 093e 9096 02be ac5a 263c
000001b0: d727 9a3d 0a4f 75bd 8193 a23d 4e91 68be
000001c0: 3f38 323e 4a15 66be 5aaa b0bd a71c 6dbd
000001d0: 30f5 94be 1065 f23d 40dd c6be 2b0b 71be
000001e0: f393 ee3c ec93 04be d785 fcbd 9dc5 b8be
000001f0: bc4d 29bc 3b6d 47be 67c5 82be 5b7b 873c
00000200: bc90 71be 0e5d 37be 2bd3 2cbe 4997 b93d
00000210: de5a aa3c 0c31 b9bd 4169 3dbe c7c7 b3bd
00000220: 3594 7f3d c01c 74bd 147e 54be afd4 923e
00000230: 99f2 21be ce74 8abe 715f d73d 24f8 95be
00000240: 01e7 b3bc c492 f3bd d9c5 5fbe 337a 6d3d
00000250: 920b e63d d5a2 8fbd 7164 82bc c8da 22be
00000260: b43c 13bc 1cf3 0b3c f59b 75bc 61e0 1fbe
00000270: 7011 883e 3f23 22bd 006b 8cbe c7e0 f93d
00000280: a758 3fbe b4a0 b33e 8780 8d3e bcd1 ddbe
00000290: f646 ddbd 8976 1dbc aebc 81be ab6e 233e
000002a0: 6010 ae3e 6c9d 963d 9048 34bd f8b4 8b3d
000002b0: a373 84be fda8 d53d f25a d23e 933e d93c
000002c0: d2b1 e8bd 988b 5f3c 2f08 95bd 3386 59be
000002d0: 8cec 8bbd 112a 25be e1ef b0bd 2f8d 60be
000002e0: 4fe7 8f3e 57d2 663c 5ff9 773e 3ca4 65be
000002f0: 6f81 6b3e af9b 11bd 8dd8 68be 9454 053d
00000300: 4449 9f3e fdf1 0d3e a194 e7bd 57a4 833c
00000310: 6717 063e d9c7 bd3d d970 8d3d 7515 80bd
00000320: 36de 8cbd dc0a 00be 4596 6c3d c6d3 de3e
00000330: 53f7 17bd 2d41 bfbc 39dd 5d3e 1956 553d
00000340: 11a0 b33c 0cc8 423d 092d a1bd ce9d 4abe
00000350: 9ae9 06be d8f9 01bc 1d68 aebd 52e6 f9bd
00000360: 6efd a53d 52fa b13e b5c4 4b3e b52e 843d
00000370: 4e45 3abc 1ddc b2bd 3414 913e 3079 54be
00000380: 80e6 0fbe 2118 72be 195d 8ebe 03b8 103f
00000390: de63 2c3e 5f54 c9bd 1b47 873e 7dfb b8be
000003a0: 7aeb cc3d 03b7 d13e a54d fd3d 94a7 4d3e
000003b0: eca8 ecbb 9e82 bbbd 421a cf3e 7d63 47bd
000003c0: 54a9 80bb 6ee2 b43e 2c5a 6cbe b3f9 ab3e
000003d0: 52c9 2bbe be6d 203e 63aa 94bd 714f 56bc
000003e0: 535c 533e 6b06 31be 30d4 9abe 31c4 9e3d
000003f0: 1be4 d9bc 9eb2 5bbe 1ee7 7b3c 1d27 b33d
-0.27268586 -0.3978806 -0.57476795 0.012303229 0.016276293 -0.105734095 -0.051977426 -0.19659911
0.1725482 -0.23491034 -0.1583299 -0.66830003 -0.124759264 -0.056219365 -0.18420845 -0.3409843
-0.078838095 -0.013415504 -0.023434106 0.2063842 -0.105667286 -0.08669382 -0.103321664 -0.03392409
-0.046497535 -0.023331849 0.010993227 0.047531903 -0.18720742 0.023308361 -0.06221626 0.05959417
-0.40866452 0.16943607 0.38879374 -0.68111086 -0.3285825 0.033787724 -0.039352957 -0.20899095
0.19165093 -0.15418293 -0.14558484 -0.021772536 -0.09399321 -0.1405564 0.20862293 -0.197543
-0.24051158 -0.5098388 -0.21369189 -0.038434394 -0.035380423 -0.13141327 -0.25028047 -0.26111686
-0.3490943 0.23649868 0.25517952 -0.26561967 -0.23226503 -0.1257007 -0.054277465 -0.16157597
0.042443432 -0.237308 -0.32511896 -0.1319757 -0.08232182 -0.23429626 -0.07950787 -0.1816432
-0.14164792 -0.3225947 -0.15134296 0.27619255 -0.33006373 -0.015662126 -0.21253027 -0.12557521
-0.06078368 -0.3142763 0.22626497 -0.006556075 -0.21588145 -0.026836254 0.086081125 -0.05593794
0.25483966 0.12936965 -0.2708883 0.07042272 -0.35882586 0.07016211 -0.08370425 -0.47081405
-0.20708047 -0.28501302 -0.079177365 0.37176713 -0.085365504 -0.05597879 -0.15547647 -0.16426268
0.07453226 0.13428478 -0.12752748 0.010153454 0.0752713 -0.05988983 0.079382904 -0.2271168
0.17404269 -0.22469059 -0.08626242 -0.057888653 -0.29093313 0.118356824 -0.38840675 -0.23539416
0.029123282 -0.12947053 -0.123302154 -0.36088267 -0.010333475 -0.19475262 -0.2554123 0.016538313
-0.23590368 -0.17906591 -0.16877429 0.090620585 0.020795282 -0.09042558 -0.18497182 -0.08778339
0.0623972 -0.05959773 -0.2075122 0.2867789 -0.158152 -0.2704224 0.10516251 -0.2929088
-0.021960737 -0.11893228 -0.21852817 0.057977866 0.112326756 -0.070134796 -0.015917035 -0.15903771
-0.008986641 0.0085418485 -0.014990796 -0.15612938 0.26575804 -0.039584395 -0.27425385 0.12201076
-0.18686162 0.35083544 0.2763712 -0.43324077 -0.1080455 -0.0096107805 -0.25339264 0.15960185
0.33996868 0.073542446 -0.044014513 0.068216264 -0.25869474 0.104326226 0.4108501 0.026519096
-0.113620415 0.013644122 -0.072769515 -0.21242599 -0.06832227 -0.16129328 -0.08639503 -0.21928857
0.28106162 0.014088235 0.24216221 -0.22425932 0.22998594 -0.035548862 -0.22738858 0.032551363
0.31110585 0.13861842 -0.113076456 0.016069574 0.13094865 0.092666335 0.069062896 -0.062540926
-0.06878321 -0.12504143 0.057760496 0.43520945 -0.0371011 -0.023346508 0.21666421 0.052084062
0.021926912 0.04755406 -0.07869918 -0.1978676 -0.1317505 -0.007933103 -0.08515952 -0.12202133
0.081049785 0.34761292 0.19899257 0.06454221 -0.011369063 -0.087333895 0.28335726 -0.20749354
-0.14052773 -0.23642017 -0.27805403 0.5653078 0.16834971 -0.09830546 0.26421437 -0.3612937
0.10005851 0.4095994 0.12368325 0.20083457 -0.0072222855 -0.091557726 0.4044972 -0.048678864
-0.0039264355 0.35329002 -0.23081273 0.33588943 -0.16776016 0.15666863 -0.07259061 -0.013080464
0.20640688 -0.17287605 -0.3024001 0.07752264 -0.026598027 -0.21454856 0.015374927 0.08747695

bnorm2.weight f4 [256]
00000000: 1274 823f 0472 423f dd8a 403f c111 4d3f
00000010: f8d6 953f 3269 223f 82b0 613f 950c 183f
00000020: 9f71 943f 63d2 613f 2b7d 493f 6589 283f
00000030: ad52 353f c083 303f c3c9 303f 091e 753f
00000040: ee8a 7a3f 574f 313f e65b 8d3f ea4a 543f
00000050: 7b56 943f 89b1 2c3f b5ce 723f 5e7a 323f
00000060: 9956 813f 3e48 763f 1869 233f 4dad 083f
00000070: f3ff 563f 4ecf 283f 29eb 743f 46a9 6c3f
00000080: 9873 713f b275 553f 1d80 4d3f 00b9 353f
00000090: 13f3 543f 76ca 363f 2f07 283f 049e 213f
000000a0: ce0e 683f 7afe 6b3f 8123 333f 39a2 213f
000000b0: db92 733f 776a 5e3f 72f1 593f 0008 273f
000000c0: f86e 5c3f 1f19 303f 132a 213f 0f1a 623f
000000d0: 5ebd 483f a810 563f 53ac 703f 6c28 293f
000000e0: 7424 1c3f 8997 483f 509a 543f 51fa 5c3f
000000f0: ab44 683f 2567 473f bd05 293f ef44 3c3f
00000100: 6239 923f 43e1 503f d60e 353f 10d7 a73f
00000110: e3bb 6a3f 7314 463f 6a2f 733f c472 463f
00000120: fae2 1a3f fb20 843f 9b92 3a3f 1571 0d3f
00000130: 3ed6 073f a2ee 3b3f a167 4e3f 7515 103f
00000140: 9163 183f 6c7b 303f dd51 253f e247 db3e
00000150: 4afd 1d3f ed90 203f 5bbc 6e3f f700 083f
00000160: 943d 183f edf4 733f dd15 453f 7a84 423f
00000170: a269 4c3f 462d 0d3f ae55 5e3f 6cc6 2c3f
00000180: a136 743f 862e 5e3f 43e2 303f 03f8 353f
00000190: 57a4 443f fb21 433f e297 463f b464 3f3f
000001a0: d8d6 083f 9500 913f ab21 6d3f 1e4a 443f
000001b0: 94a3 523f a686 fe3e b15e 233f 6c38 2a3f
000001c0: a2fc 443f 8e79 5d3f 5eb2 493f 3288 383f
000001d0: a7f6 823f 406a 323f c0b6 763f 6c9a 8a3f
000001e0: bc0b 4d3f cb94 3a3f 5ffd 763f 72b7 303f
000001f0: a37c 463f 317a 2b3f e07f 883f c187 683f
00000200: 20c7 3e3f 5762 063f 2ffe 763f 45b4 463f
00000210: 547f 823f f407 473f 589a 3a3f 938a 323f
00000220: dc2a 523f 9204 533f 7124 2b3f 9b8b d53e
00000230: 9013 1f3f b7ea 4b3f ec51 693f 358b 333f
00000240: 4d85 673f 28c4 3b3f 5064 733f ab5f 3f3f
00000250: f66e 723f d4ac 5a3f 7337 833f c845 963f
00000260: 85d2 463f b831 613f 5641 413f 2947 6e3f
00000270: a9eb 583f 36b7 923f e6a8 043f 5be0 353f
00000280: abf3 443f b7c3 593f fbd4 1c3f 7762 373f
00000290: ca60 393f 9ad4 273f ae88 213f f805 533f
000002a0: 0469 8e3f d197 2d3f 5a6c 2b3f c138 423f
000002b0: 4412 6a3f 6e43 5c3f 0765 4b3f 8363 443f
000002c0: 39b5 583f 329e 333f 53fa 283f c413 303f
000002d0: 63a6 5a3f 651b 043f 66f4 3d3f e7d4 243f
000002e0: be86 243f 7fba 463f b61f 323f ff7f 353f
000002f0: 19bf 193f f6fb 653f a305 493f 9458 463f
00000300: 43dd 423f a07e 323f 3bde 553f 1d86 623f
00000310: ae2b 783f 9572 153f 582f f53e cb30 473f
00000320: 502c 303f d2a1 373f cd64 633f cf1f 893f
00000330: 1d82 153f 0649 093f 7e87 583f b229 293f
00000340: c06c 2f3f 2741 823f 46a3 233f 2d52 633f
00000350: 3c0c 483f 3611 2a3f 3fd5 873f 2343 583f
00000360: 291d 133f 0cf3 653f da0e 3c3f ff72 4e3f
00000370: f18f 6a3f 8991 673f 9a9f 4a3f 754f 1f3f
00000380: 6926 713f 8b69 503f ccfc 4e3f f858 483f
00000390: 1285 b43f 2362 693f 6541 203f 0e69 413f
000003a0: e003 403f 8b50 463f 5441 533f 2a49 3f3f
000003b0: c050 203f 6aa0 503f 6bc0 303f bec7 403f
000003c0: f8db 613f 9a41 723f 1e39 833f a381 2f3f
000003d0: dacb 1c3f e14b 703f dc73 2d3f c722 153f
000003e0: 1209 223f c4c8 413f 32f8 2c3f b33c 553f
000003f0: 6f6e 6b3f c360 7c3f 0c4d 4b3f 3cf0 4e3f
1.0191672 0.75955224 0.7521189 0.80105215 1.1706228 0.63441765 0.88159955 0.593942
1.1597174 0.8821165 0.78706616 0.6583465 0.7082928 0.68951035 0.69057864 0.95748955
0.9786824 0.6926169 1.104367 0.8292681 1.1588892 0.674584 0.9484666 0.6971797
1.0104553 0.9620398 0.63832235 0.53389436 0.839843 0.6594132 0.95671326 0.9244579
0.9431701 0.83382714 0.8027361 0.7098541 0.831834 0.7140268 0.6563596 0.6313174
0.9064759 0.92185175 0.6997605 0.6313816 0.9514596 0.868812 0.8513404 0.6524658
0.86106825 0.6878833 0.62954825 0.8832101 0.7841395 0.83619165 0.94012946 0.66077304
0.60993123 0.78356224 0.8304796 0.8631945 0.9072978 0.7789176 0.6602438 0.73542684
1.1423762 0.8159372 0.7072576 1.3112507 0.9169294 0.77374953 0.94994223 0.7751887
0.6050259 1.0322565 0.7287995 0.55250674 0.5306128 0.73411 0.80626875 0.5628274
0.59526926 0.68938327 0.6457804 0.4282828 0.61714613 0.6272114 0.9325616 0.5312647
0.5946896 0.952956 0.76986486 0.75983393 0.7984868 0.55147207 0.86849487 0.6749027
0.9539586 0.8678974 0.6909525 0.7108156 0.7681326 0.76223725 0.77575505 0.74763036
0.53452826 1.1328303 0.926295 0.76675594 0.8228085 0.49712104 0.6381636 0.6649234
0.7694799 0.865136 0.7878779 0.7208282 1.0231522 0.69693375 0.96372604 1.0828376
0.8009603 0.7288329 0.96480364 0.69029915 0.7753393 0.66983324 1.0664024 0.90832144
0.7452259 0.52493805 0.96481603 0.7761882 1.0195107 0.7774651 0.7289176 0.697427
0.8209665 0.8242885 0.6685248 0.41708073 0.62139225 0.7965502 0.9114063 0.7013429
0.90437776 0.73346186 0.9507494 0.7475535 0.9470056 0.85419965 1.0251297 1.1740046
0.7766498 0.8796649 0.7549032 0.9307733 0.8473459 1.1462162 0.5182022 0.71045464
0.7693431 0.8506426 0.6126248 0.7163462 0.72413313 0.6555878 0.6309918 0.8243098
1.1125798 0.6780978 0.66962206 0.7586785 0.9143412 0.8604039 0.7945103 0.7671434
0.84651524 0.7016326 0.66006964 0.6878016 0.85410136 0.516043 0.7420105 0.64387363
0.642681 0.7762832 0.6957964 0.7089843 0.60057217 0.89837587 0.78524226 0.7747891
0.7611887 0.69724464 0.8354222 0.8848589 0.9694165 0.58377963 0.47887683 0.7780883
0.68817616 0.71731293 0.88825685 1.0712832 0.5840166 0.5362705 0.84581745 0.66079247
0.68525314 1.0176133 0.6392101 0.88797265 0.7814367 0.6643251 1.0611953 0.8447744
0.5746637 0.89823985 0.7346016 0.8064422 0.9162589 0.90456444 0.7914978 0.62230617
0.94199234 0.81411046 0.8085449 0.78260756 1.410311 0.9116537 0.62599784 0.75550926
0.7500591 0.7746665 0.8252156 0.74721014 0.62623215 0.8149477 0.69043607 0.7530478
0.8822627 0.9463135 1.0251806 0.68557185 0.6124855 0.9386578 0.6775491 0.5825619
0.6329509 0.7569697 0.67566216 0.83295745 0.91965383 0.98585147 0.7941444 0.8083532

bnorm2.bias f4 [256]
00000000: 50b9 17bb 88df 9ebd 9ba5 f8be 0591 bb3d
00000010: bdc8 833d e201 bdbe 6c9e 563c eb64 e6be
00000020: 13a9 6f3c dba5 4a3e 101a 10bd bd96 e8be
00000030: 13a1 83be 695a 8cbe c876 ebbe 1d13 d13d
00000040: c904 d53e ac9b 6abe d976 04be 0f75 583e
00000050: 4156 3d3e 0ca8 6fbe 0950 d13d 713d 7ebe
00000060: f270 6ebd ad39 a5bc c0af c3be bbad d0be
00000070: b31a 6abe 8436 8dbe 4c8f 06be 1f6f 08be
00000080: e3a6 3fbe 5b4a 4bbe a3d5 f1be 5afd 74be
00000090: 2a7c 91be a6ed 8abe 4f10 f7be 034f cebe
000000a0: b244 813d f1e5 99bc 40bb c9be 6a81 bebe
000000b0: a2be 32be 1280 8abc 8bb1 26be fd06 d9be
000000c0: 31ee a7bc d78b 7dbe e276 cfbe b958 72be
000000d0: 60c5 c3be 4da7 bbbd 5074 1f3d cf7f abbe
000000e0: 0f3b 81be 5c23 46be 55a3 8bbe 4d05 fcbd
000000f0: 766b 87be cf53 aabe 6e4f 4bbe 20ba 20be
00000100: 534a 633e 1137 44be bcd5 cdbe 7792 40be
00000110: 27ae 543e 1c1e ebbd 06e9 23bd 9098 6ebe
00000120: 950b e6be 3cdd c93d b562 50be fbf5 63be
00000130: 3d60 d9be ff97 4ebe 2ba3 51be 0fbd f3be
00000140: c029 9bbe 864a acbe e30b e2be 4725 e0be
00000150: 028c c7be af59 c9be fc6a 40be 23b9 d6be
00000160: 90af bfbe d3a5 b23c bc9b 9dbe fd4b ddbe
00000170: 229e 3ebe be4c abbe 29f2 65be 03be a9be
00000180: 99e5 33be b6b5 89be 06c7 32be 4863 8bbe
00000190: 2986 87be 0b6b c6be b9c5 48be eeb8 74be
000001a0: 709b 343f eccb c23d 4b3e 86be 5b2d d9bd
000001b0: a96b 43be 68fd bcbe bb55 c1be 842a 85be
000001c0: 20d2 54be 036c 77be 4ac2 5fbe 340b 63be
000001d0: ad2a 29be 75dd 5cbe 6915 0bbe 2755 abbe
000001e0: 6c3c 39be 83f0 68be 870e a73e 74cf 52be
000001f0: e489 753e 13f7 423d 08f7 373e 984c 3dbe
00000200: 4b60 5abe 414a cebe a9dc 2abe 7d0a 94be
00000210: e1bb 793e e092 81be 8828 29bc 7a18 0ebe
00000220: 758d 72be 70c2 f5bd 37fd dabe b343 08bf
00000230: 035c 80be 690c 22bd 436e 11bd 5cd0 37be
00000240: 1f14 b83e 398a 5ebe 9eb6 91be fe25 ad3d
00000250: 3339 313d 560a b4bc d42f 74bd 7948 083e
00000260: 2528 6dbe dc20 cabd 380a 48be 4206 02be
00000270: b27f 31be ca60 2b3d 606d 96be 3148 7bbe
00000280: 3e90 f4be c991 b2be 93e9 b5be 3fc6 6ebe
00000290: ebe0 8dbe 008b e2bd cbb5 b7be 52e8 a3be
000002a0: 4c7f 96bd 88e9 4bbe 89c7 c4be e4ba 91be
000002b0: d246 cc3e 33a9 b2be b5ef dcbc 582e 75be
000002c0: d61b 99bd 9619 91be 6a96 adbe 7a59 a6be
000002d0: c775 90be ef22 9fbe 85e7 53be 026f 75bc
000002e0: 1b56 22be 7481 8dbe f80c 88be d008 30be
000002f0: 68de e3be c52c 9fbc e3b7 e1bd 8014 91be
00000300: caf6 2fbe b04d c8be 9a0a 933d 1265 a6bd
00000310: 54f1 1e3e 2051 98be 9c43 94be 9d88 2abe
00000320: 5aa8 b6be d68a f7bd b6d1 7ebe 3a88 463d
00000330: 1921 dabe 87dc babe 0b1c ebbd 9adc 79be
00000340: ef14 9bbe abdb 613d dfec aebe 34dd 7bbc
00000350: 1381 0ebd 8c42 64be 228d 8d3e e9d3 bfbe
00000360: 8f2f 69be 2ff2 0bbd c533 8dbe 347d 83bd
00000370: 3c2b 093f e9ce 043d 15ba bebe a596 f8be
00000380: 39d1 81bc 01ba 3abe b787 ee3c cc9f 5dbe
00000390: 83ba 35bc dc86 813c b7c0 a5be a032 5b3e
000003a0: 955b 5cbe 0d0f 45be b666 70be 6d58 4fbe
000003b0: 2067 b5be 411b d7bd e37d abbd cf36 2fbd
000003c0: cca3 0f3d 5c24 da3d c5b0 d9bd c2c7 69be
000003d0: 90f6 2fbe 6448 b8bd 1594 babe 5e7c b0be
000003e0: f8bf e8be baa1 b33d d61e e7be 7a14 a6be
000003f0: b394 d3bd 79e7 83be 1ca5 37be 2d4b 833d
-0.0023151226 -0.07757479 -0.48563847 0.0915852 0.06434772 -0.369155 0.013099294 -0.4499887
0.014627713 0.19789831 -0.035181105 -0.45427504 -0.25708827 -0.27412727 -0.4598906 0.10208724
0.41605213 -0.22910947 -0.12935962 0.21138404 0.18489935 -0.23403949 0.102203436 -0.24828126
-0.05821318 -0.020169104 -0.38220024 -0.40757546 -0.22861747 -0.27580655 -0.13140601 -0.1332364
-0.18716006 -0.19852583 -0.47233304 -0.23924771 -0.28415042 -0.27134436 -0.4825463 -0.40294656
0.06311931 -0.018786402 -0.39400673 -0.3720811 -0.17455533 -0.016906772 -0.16278665 -0.42388144
-0.02049932 -0.24760376 -0.40520388 -0.23666658 -0.38236523 -0.091627695 0.038929284 -0.33495948
-0.2524037 -0.19349426 -0.2727305 -0.123056985 -0.26449174 -0.33267066 -0.19854519 -0.15696001
0.22196321 -0.19161631 -0.4020213 -0.18805872 0.20769559 -0.11480352 -0.04001715 -0.23300385
-0.4493071 0.0985665 -0.20350154 -0.22261803 -0.42456236 -0.2017517 -0.204724 -0.47605178
-0.3030529 -0.33650607 -0.44149694 -0.4377844 -0.38974005 -0.39326236 -0.18790811 -0.41938123
-0.3743863 0.021807587 -0.30782878 -0.43222037 -0.1861501 -0.33456987 -0.22455658 -0.3315278
-0.17568053 -0.26896447 -0.17458734 -0.27224183 -0.26469544 -0.38753542 -0.19606675 -0.2389867
0.7054968 0.09511551 -0.262194 -0.10604354 -0.19084038 -0.36912084 -0.3776072 -0.26009
-0.20783281 -0.24162297 -0.21851459 -0.22172242 -0.16520186 -0.21568854 -0.13582386 -0.33463404
-0.18089455 -0.22747998 0.3262827 -0.2058695 0.23978382 0.04759891 0.17965329 -0.1848625
-0.21325795 -0.40291026 -0.16685738 -0.28914252 0.24388076 -0.2530737 -0.010324605 -0.13876525
-0.23686774 -0.11999977 -0.42771313 -0.532283 -0.250702 -0.039562616 -0.035505544 -0.17950577
0.3595285 -0.21732415 -0.28459638 0.08454512 0.04326744 -0.021977585 -0.059615925 0.13308896
-0.23159845 -0.09869549 -0.19535148 -0.126977 -0.17333868 0.041840352 -0.29380322 -0.24539258
-0.47766298 -0.3487685 -0.35529765 -0.23317812 -0.2771066 -0.110616684 -0.35880885 -0.32013184
-0.07348499 -0.19913304 -0.38433483 -0.284629 0.39897782 -0.34894714 -0.02696977 -0.2394346
-0.074760124 -0.28339833 -0.3390382 -0.3249014 -0.28214857 -0.3108134 -0.20693786 -0.01498008
-0.15853159 -0.27637827 -0.26572394 -0.17190862 -0.4450562 -0.019430527 -0.11021402 -0.28335953
-0.17183986 -0.3912177 0.071797565 -0.081247464 0.15521747 -0.29749393 -0.28957832 -0.16653676
-0.35675317 -0.12087028 -0.24884686 0.04846976 -0.42603377 -0.36496374 -0.11479958 -0.24400559
-0.3028941 0.055141132 -0.34165093 -0.015372563 -0.034791064 -0.2229101 0.27646738 -0.37466362
-0.22772048 -0.03416651 -0.2757856 -0.06420365 0.53581595 0.032423887 -0.37251344 -0.48552433
-0.015846835 -0.18235017 0.029117448 -0.21642989 -0.011091831 0.015811376 -0.32373592 0.2140603
-0.21519311 -0.19244023 -0.23476681 -0.20248576 -0.3543024 -0.10503245 -0.0837362 -0.04277688
0.03506832 0.10651466 -0.10629419 -0.22830108 -0.171839 -0.089981824 -0.36441103 -0.34469885
-0.4545896 0.08771081 -0.45140713 -0.32437497 -0.103310965 -0.25762537 -0.17934078 0.06410823
